cnn_segmenter.pth (torch, 142808 bytes, 13 tensors)

encoder.0.weight f4 [16, 3, 3, 3]
00000000: 3bf1 ebbc 8665 233e 25a1 d13d f1cb a23c
00000010: dab4 123e d682 763d 9224 05be 122d 603e
00000020: 277b dc3c d979 5cbd 3d67 f4bb b463 893d
00000030: ec08 073e 731e 02bd 455c 2abd a2ad f53d
00000040: 5fb0 7dbd d176 963d 86e6 bd3d 550d d9bd
00000050: b65c 13be 43aa 0fbe 1bb5 b1bd 7f99 103c
00000060: 19ed 713c 6dc1 05be d2c9 8dbd 37b9 373e
00000070: 9e58 59bd fe7c e23d 3d65 383e 3d28 bebd
00000080: 295f 433d d901 b3bc d194 343d f553 3d3d
00000090: 55ff bebd 8b55 1f3d 1174 79be 3f50 e1bd
000000a0: d624 a9bc 8ea2 843b 6108 1cbd edf5 33be
000000b0: 7f64 9fbd fd60 5cbd 07f0 2bbd d014 543e
000000c0: 6db3 0b3b 1fd7 443e 1304 6f3c 883d 753c
000000d0: 39d2 ed3d 33e4 2ebc 1e04 313e f024 4d3e
000000e0: 9fc3 78bd 31fc 463d 43ab 3c3e 96fc 1dbe
000000f0: 998d 6fbd 406b 84bd a12e d23d 7cd3 2ebe
00000100: dfda 0fbe e4bb 08be 9982 723d 4288 c63c
00000110: a1d0 0b3e 8c5d f43d ee7a adbd fdce dd3c
00000120: d534 413e 243c 10be b557 ddbd 6848 0c3e
00000130: 914d 13bd 5091 f53d a5fd 063e 5753 363d
00000140: 6eef dc3d 2daa e2bc 7d96 603b 48e7 43be
00000150: ba04 053e 215b 163e 0ef7 103e bf49 5f3e
00000160: f80e fc3b 1d75 103e e27f 19be 0b04 bfbd
00000170: c0c1 cdbc 88d3 3bbe 6b8c 48be a0fa 13be
00000180: 9a53 45be 5bab 84bd f162 28be 5516 213e
00000190: 7202 7a3d ff18 493e 17b1 153d 6241 f73c
000001a0: b224 28bc 0fc0 2abd 4e92 2b3d 0470 333c
000001b0: ba6f 4c3e 06d0 26be 0d79 85bd 1846 773d
000001c0: a5c4 e4bd c314 7d3d d6dd a8bd 9881 88be
000001d0: c7ee 263e ee37 8f3e f48d b1bb 4f39 853e
000001e0: 874c ecbd 3895 47bb 42f2 183e 5e85 073e
000001f0: 8902 e1bd c050 5f3e b5d4 dfbc 2b67 cbbd
00000200: 8e88 6bbd 90b4 fbbd 2cbe 84bd 1320 993d
00000210: 8ce5 b3bd 62bc 6fbd 7d97 9e3c 300c 77bd
00000220: e25b ad3d 2006 07be ee8b 51bd 686a 443e
00000230: bfbc a3bd a6e5 073e 7110 9f3d 35e9 373e
00000240: a156 84bd de32 283d 942d f13d d4d0 5ebd
00000250: 3e88 36be 50a0 d83d 9978 953d 6c7d 8339
00000260: e40d 39be 5829 e33d 38d3 2e3d 97b7 ebbc
00000270: 3d6c 17bd cf46 96bd 1f2e 053e 2185 a53d
00000280: 9a7d fe3d fb2d 0c3d b069 d93d fec4 503d
00000290: 1661 de3d 65ad d4bd 4cda 2c3d 0870 293e
000002a0: e160 473e 9a43 93bd bb51 2c3d bdb6 dbbc
000002b0: 5375 323e 56d4 393d 0bdb b8bc 5395 713d
000002c0: 8d02 243d 856c 14be d33f 01be 2cb3 863d
000002d0: 0f46 16be ebcb 31be 7216 f3bd e0a6 cd3d
000002e0: ee0e 1dbe 7ddb ebbd ff31 3bbe ff33 7f3d
000002f0: 5dd9 5cbe fdf0 2ebd df92 453d 4bea 9fbd
00000300: 18dd 493d e526 ec3d 2df9 fb3d 70ef d2bd
00000310: 26bb 513d fb54 d93b 1275 fcbc 8130 b13c
00000320: 1fa5 39be ebbc 563d d070 fa3d a90d 6abe
00000330: 3b00 c03b 474e 873d 80f0 773d 4a48 05be
00000340: 1296 18be cb32 0e3e f123 09bd 8bf1 d63d
00000350: 8e53 43bd 7b3e 8d3d d255 083e 182c b1bd
00000360: b0a2 473e dbab 353e 226f 223e 1367 59bd
00000370: aa83 a93d a651 05be 8039 4a3e 5a22 1c3d
00000380: 99b2 093e 66b4 36bd 4131 0a3c 3027 413d
00000390: 0dcc 173e 2110 d4bd 9a82 64bb 2ca6 993c
000003a0: 3264 5abc 3617 39be 1ebb a43c fe17 ae3d
000003b0: df10 213e fd81 0abe 0924 053e b0b8 7e3d
000003c0: e17d bdbd 34bf 0f3e 963b 853d 859c 7a3d
000003d0: c199 2dbe 03d3 34be a811 0abd 9197 1d3e
000003e0: aa03 40bd e4a8 00bd 4dbc 6dbe 5612 8e3d
000003f0: 531f d43b 2075 3dbe 9ca8 09be 32a6 aa3c
-0.028801551 0.15956697 0.10235814 0.019872637 0.14326802 0.06018337 -0.13002232 0.21892193
0.026914192 -0.05382714 -0.007458596 0.0670847 0.13186997 -0.03176732 -0.0415919 0.119960085
-0.06193578 0.07346881 0.092724845 -0.10598246 -0.14390835 -0.14029793 -0.08677121 0.008825659
0.014766001 -0.13062067 -0.0692326 0.17941748 -0.053063028 0.110589966 0.1800737 -0.092850186
0.047698174 -0.021851467 0.044087235 0.046222646 -0.093260445 0.03889994 -0.24360682 -0.11001634
-0.020647448 0.0040476983 -0.03809393 -0.17574282 -0.0778284 -0.053803433 -0.041976955 0.20711064
0.0021316663 0.19222687 0.014588374 0.0149682835 0.116123624 -0.010674524 0.17286727 0.20033622
-0.060733434 0.048580352 0.18424706 -0.15428385 -0.058484647 -0.06465769 0.102628 -0.17072862
-0.14048336 -0.13352925 0.05920658 0.024234895 0.13653804 0.11931905 -0.084707126 0.027076239
0.1886781 -0.14085442 -0.108077444 0.13699496 -0.035962645 0.11990607 0.13182695 0.044513073
0.10787855 -0.027669037 0.0034269386 -0.19131196 0.12990084 0.146832 0.14156744 0.21805476
0.007692214 0.14107175 -0.1499019 -0.09326943 -0.025116801 -0.18342412 -0.19584815 -0.14451075
-0.19270173 -0.06477996 -0.16443993 0.15731175 0.06103749 0.19638442 0.03654584 0.030182544
-0.010262655 -0.041687068 0.041887574 0.010952 0.19964495 -0.16290292 -0.06517229 0.06036958
-0.111703195 0.061787378 -0.08245437 -0.26661372 0.16302024 0.27972358 -0.0054185335 0.26020285
-0.11538034 -0.0030453932 0.14936164 0.1323447 -0.10986812 0.21808147 -0.027323106 -0.09931787
-0.057503276 -0.12290299 -0.06481585 0.07476821 -0.08784017 -0.058529265 0.019359345 -0.060314357
0.08464791 -0.1318593 -0.051158838 0.19181216 -0.07994985 0.13271198 0.07766808 0.17960055
-0.06461836 0.041064136 0.117762715 -0.054398373 -0.1782541 0.10577452 0.07298393 0.00025079714
-0.18071705 0.1109187 0.042681903 -0.028774066 -0.03696846 -0.073377244 0.13005875 0.08082033
0.124263 0.034223538 0.106158614 0.050969116 0.108583614 -0.10384635 0.04220037 0.16546643
0.1947055 -0.07190628 0.04207013 -0.026820535 0.17427568 0.045368515 -0.022565385 0.058980297
0.040041495 -0.14494522 -0.12622003 0.06577143 -0.14675163 -0.17362945 -0.118695155 0.100415945
-0.15337726 -0.115164734 -0.18280791 0.062305447 -0.21567293 -0.042710293 0.04823577 -0.0780836
0.049283117 0.11530856 0.12303386 -0.10299575 0.05120387 0.006632445 -0.030817542 0.021629574
-0.18129395 0.05242626 0.122285485 -0.22856773 0.0058594025 0.06606727 0.060532093 -0.13015857
-0.14900997 0.13886563 -0.033481542 0.104952894 -0.047687106 0.06896683 0.13313988 -0.08650988
0.19495654 0.17741339 0.15862706 -0.053076815 0.08277066 -0.13019428 0.19748497 0.038118698
0.13447036 -0.044605635 0.008434595 0.047156513 0.14823933 -0.10354639 -0.0034867884 0.018755995
-0.0133295525 -0.1807526 0.020108756 0.0850067 0.15729092 -0.13526149 0.13002028 0.06218785
-0.09252525 0.14037782 0.06505506 0.061184425 -0.16953184 -0.1765862 -0.033708245 0.15389849
-0.046878494 -0.031411067 -0.23216362 0.06937091 0.0064734607 -0.18501711 -0.13443226 0.020831201

encoder.0.bias f4 [16]
00000000: 9c42 3c3e e13f a23d 8e26 943d 96a0 453d
00000010: 436a 193e ca7b 913d 9595 393e bd4a 16bc
00000020: 1747 013e 514d 293d 31fa c3bd c75b 1ebd
00000030: 35a6 07bd a481 a73d e899 bbbd b904 8dbd
0.18384784 0.0792234 0.07233916 0.04824885 0.14981942 0.07103689 0.18123467 -0.009173092
0.12624775 0.0413335 -0.095692046 -0.038661744 -0.03311749 0.08179024 -0.09160215 -0.068856664

encoder.3.weight f4 [32, 16, 3, 3]
00000000: bb55 0b3e 7105 f23d d6f3 3e3e c847 743d
00000010: e011 293e ac0a b03d c9b5 053e 65c3 0f3e
00000020: 6e7b 2d3e b9a5 073d 7ad4 babc e65a c73d
00000030: 0f85 5f3d 37a8 963c 46a1 90bb fac0 d6bc
00000040: 1cab 18bd c284 0fbd b2d9 1e3d 059e 5fbc
00000050: 782b 053d 4b0b 80bd b2d5 983d be86 5e3d
00000060: c1e2 09bd fcd0 70bd 6453 5fbd 9fdc 133e
00000070: a4a9 b93d b28b 0b3e 03bb 2c3e 75e8 2d3e
00000080: 3ff3 093e 9a02 8b3d ff6d 273e 46e0 263e
00000090: e7cd 46bd 3c49 e6bd 9100 eebd bbc5 1bbe
000000a0: d1b8 86bd 6982 84bd ac0d cebd e3bb bebd
000000b0: 7fec 30be bf26 00bc 1e25 8fbd 831a afbd
000000c0: 9717 2abd 7e2c a13d b48f d13b 6e05 853b
000000d0: e9e1 933c fb99 01bb 3c43 8d3e c9ad 483e
000000e0: 74e8 353e cf60 603e 1742 183e 9c7f 433e
000000f0: e079 983e 3727 8b3e be09 9e3e f12d 143c
00000100: eeab 9fbd 1199 423b 773a 153c 6c83 8f3d
00000110: 7307 9f3c 3bb4 14bd 7f4e 8e3d aacd 6d3d
00000120: a44c 8e3d 7c6e 59bd d028 d43c 2687 31bd
00000130: 66a5 dc3c 8f50 a03d 685f c53c 484f 103d
00000140: 47a2 53ba 0482 82bd a88f 70bd 24cc 15be
00000150: ff2b 50be 9257 a6bd 8e92 3ebe 7298 52be
00000160: 6c6a 59be 89b7 cfbd c7c2 a23d c74e a43d
00000170: 45bf 6b3b 2b5b e23b 9682 153d 69e6 f9bb
00000180: 4bc5 793c eb11 3c3d 949e 5dbd a4c4 a33c
00000190: fc1f 2a3d 76a0 0a3d 2638 33bd 65d5 c23c
000001a0: a707 40bd 3e85 81bb 6d5e aaba 6841 813c
000001b0: 45f6 09be 4bf4 83bd 9924 1fbd 2f75 0ebe
000001c0: 3449 4cbd e709 81bd 922b 7cbd 3d7c 28be
000001d0: d30d 64bd c1eb de3d 90ae a53d 99ab 893d
000001e0: f15b 433d e310 d73d d22e 5d3d 5782 373e
000001f0: 7187 063e ffb1 e43d fad0 49bc 656d 55bd
00000200: d6cc 0abe 5bd5 bebc 8a80 c1bd 7300 d7bb
00000210: 3ef1 bbbd f0e7 e5bd be99 54bd c055 1d3e
00000220: 9413 643e 4387 0f3e 6df7 0c3e 097f 173e
00000230: aeac 373e b547 243e 8c2a 8a3e ea2a 813e
00000240: 53ec b73d 74c6 023e eb7b cf3d 38c2 1f3e
00000250: a302 2a3e 6d38 c23d fe82 513e 2ec8 f63d
00000260: ae69 fd3d f7eb 653d 6393 893c 80be 76bd
00000270: 904d f6b9 1e7c dd3d f2f0 f2bb 0536 163d
00000280: d87e 28bc 078b 83bc 6829 25bd 28d5 65bd
00000290: cf94 fc3c 0b2c 3bbd 9e81 dcbc bd18 36bd
000002a0: 18a0 73bd 3956 75bc 8a2d df3c de9a 163e
000002b0: d92b 6b3c 7e1b d93c c9ac 223e 1791 073d
000002c0: 0b8a 063e bbd0 893d db46 963d 8943 953d
000002d0: 6c3e 28be a7f1 90bd f2f7 dabd 90af aebd
000002e0: cb06 9ebd 3852 2fbd 39f9 20be f3c2 62bd
000002f0: 530f edbd 37fd 5c3c 56aa ac3c eb3f 3fbd
00000300: 18b6 803b 6688 53bd 7663 a13d 1998 613c
00000310: 8840 a73d 7746 02bd 46d2 6c3e 66eb 773e
00000320: e1a7 8b3e b24a 733e 7403 5f3e 9ed3 083e
00000330: 1119 ca3e df24 953e 17c2 bd3e 4942 6a3b
00000340: 4e6a 99bd 993b d1bb 2a7e 26bd 214c bb3b
00000350: 985b 0b3d fc0a 7d3c 6847 4c3c 0686 0ebb
00000360: d855 af3c 1201 2fbd c05b 273d b451 843d
00000370: 2ded ceba 46ac a23c 4abf af3d 6dc4 9f3d
00000380: 07e4 27bc 05bf 35be bf07 14be 035f 13be
00000390: 990b 84bd 88a6 f1bd 9866 5fbd 0bcc 2cbe
000003a0: 08c1 37be ac40 50be 3600 37bc 2b7b c73c
000003b0: 17fc 8e3d b3a0 96bd f3a8 16bd ec4a 393d
000003c0: ea4c 89bd 1b09 973c 8e89 1bbd bf94 61bd
000003d0: 48c2 b2bc 5da7 7d3c 6938 313d 54d2 aabd
000003e0: 1c33 bfbd 3ffc a53a 5240 91bb 2cfd 053d
000003f0: 50f5 01be 79c0 57bd 339f 9fbd d02c c5bd
0.13606922 0.11817444 0.18647704 0.05963877 0.16510725 0.085957855 0.13057627 0.14039381
0.16941616 0.03311703 -0.022806395 0.097341344 0.054570254 0.018390758 -0.0044137565 -0.026215065
-0.037272558 -0.035038717 0.03878183 -0.013648515 0.03251216 -0.06252154 0.07462634 0.05432772
-0.033663515 -0.058793053 -0.054522887 0.14439629 0.090655595 0.13627508 0.16868214 0.16983207
0.13471697 0.067876056 0.16350554 0.16296491 -0.048536208 -0.11244437 -0.11621202 -0.15212147
-0.0657822 -0.06470186 -0.100612015 -0.0931318 -0.17277716 -0.007821738 -0.069895014 -0.085499786
-0.041526403 0.07869814 0.0063953046 0.004059485 0.018052058 -0.0019775617 0.27590358 0.19597544
0.17764455 0.2191193 0.14868961 0.19091648 0.29780483 0.27178356 0.30866808 0.009044156
-0.07796465 0.0029693285 0.009108177 0.070074886 0.019412732 -0.036304694 0.06948566 0.058057465
0.06948212 -0.05308388 0.025898367 -0.04334178 0.026934337 0.07827865 0.024093345 0.03523186
-0.00080731924 -0.06372455 -0.05873075 -0.14628655 -0.20329283 -0.081221715 -0.18610594 -0.20565966
-0.21232003 -0.101424284 0.07947307 0.08022838 0.003597216 0.0069078407 0.03650149 -0.007626344
0.015244792 0.045915525 -0.05410631 0.019991226 0.04153441 0.033844434 -0.04375472 0.023783395
-0.046882298 -0.0039526513 -0.0012998112 0.015778258 -0.1347285 -0.064430796 -0.03885326 -0.1391189
-0.0498745 -0.06300717 -0.06156499 -0.16453643 -0.055677246 0.1088481 0.08089936 0.06722183
0.047695104 0.10501268 0.05399973 0.17920814 0.13137604 0.111667626 -0.01231789 -0.05210628
-0.13554701 -0.023295095 -0.09448345 -0.006561333 -0.09176873 -0.11225879 -0.051904432 0.15364742
0.22273093 0.14016442 0.1376626 0.14794554 0.17936966 0.16042979 0.26985586 0.25228053
0.08980622 0.12771016 0.10131057 0.15601432 0.16602568 0.094834186 0.20460126 0.120499
0.123736724 0.056133237 0.016793912 -0.06024027 -0.00046978565 0.10814689 -0.007413977 0.03667261
-0.010284148 -0.016057504 -0.04032269 -0.056111485 0.030832676 -0.0456963 -0.026917275 -0.044457186
-0.05947885 -0.01497417 0.027243394 0.14707515 0.014353716 0.026502367 0.15886225 0.033097353
0.13138597 0.06729265 0.07337733 0.07288272 -0.16430062 -0.070773415 -0.10691823 -0.0852958
-0.077161394 -0.04280302 -0.15720071 -0.0553617 -0.115751885 0.0134881055 0.021077316 -0.046691816
0.0039279573 -0.05164375 0.07880299 0.013769173 0.08166605 -0.03180548 0.23127088 0.24210891
0.2727652 0.23758963 0.21778661 0.13361976 0.3947225 0.29129693 0.3706214 0.0035745075
-0.07490979 -0.0063852784 -0.040647663 0.0057158624 0.034022897 0.015444513 0.012468196 -0.0021747365
0.021403238 -0.04272563 0.040858984 0.06460896 -0.0015787237 0.019857537 0.08581407 0.07801137
-0.010247237 -0.1774865 -0.1445608 -0.14391713 -0.064475246 -0.117993414 -0.0545412 -0.16874711
-0.1794473 -0.2033717 -0.011169484 0.024350723 0.06981676 -0.0735487 -0.036782216 0.045237467
-0.06704123 0.018436959 -0.03797298 -0.055073496 -0.021821156 0.015481797 0.043266688 -0.08340898
-0.0933592 0.0012663676 -0.0044327164 0.032712147 -0.12691236 -0.05267379 -0.07794037 -0.09627688

encoder.3.bias f4 [32]
00000000: 69bb a53c b982 a43c e482 eb3d 4a10 563c
00000010: 47e6 403d 4ddd 753d b0c9 d83d 050d d73d
00000020: ae3b a2bd 0b8b 8fbd d32c 2a3c 7f03 d1bc
00000030: 59f3 15bc 473c c63d 8285 d53d a782 9e3d
00000040: d973 92bd 3e1c 853d 4ac6 17bc b360 573d
00000050: b64e 58bc e91f 063c 5309 cf3d 7a08 96bd
00000060: 61c0 4c3d 9f66 4cbc 40ae 803d bf58 943d
00000070: 46ee 613d c3e3 0bbc 4ac5 b33d 21b1 aa3d
0.020230966 0.020081865 0.11499575 0.013065407 0.04709461 0.060025502 0.10585344 0.1050053
-0.07921539 -0.07008942 0.0103866635 -0.025514362 -0.009152257 0.09679466 0.10425855 0.07739764
-0.071510024 0.064995274 -0.009263584 0.052582454 -0.01320236 0.008186319 0.101092 -0.073258355
0.049988154 -0.012475639 0.062832355 0.072434895 0.055158876 -0.008538189 0.08777864 0.08334566

encoder.6.weight f4 [64, 32, 3, 3]
00000000: 3b7e 293d 301f 7b3d 61a0 873c 0576 363d
00000010: 7afc 853c 98ed 8d3d dc44 633d c397 243d
00000020: 9ac5 8b3d bb78 bd3c 0c7d 30ba b9f6 243d
00000030: 437f c53d 72a8 763d c5ac 3f3c 815a 203d
00000040: dc87 b33c 5f14 e53c dcb4 943d f398 b83d
00000050: 3465 cf3a c0b1 973c 12f5 a5bb b587 4f3d
00000060: 7266 f13c a487 eebb cd06 c83d b66c 383c
00000070: 56a2 543d 12b1 973d afbf af3d e280 343b
00000080: 7375 373c ad80 ab3d 63ed 0b3b d4c9 c23d
00000090: 332e 063c c47d b63d 1787 f33c cdd6 4c3d
000000a0: d6d1 f13c a8ec 1dba d776 c5bb 709d d83c
000000b0: f126 123d d9aa 413e 411b f03d abb1 2e3e
000000c0: 00f8 1e3e 5603 ba3d 37a2 783d ffd7 213e
000000d0: b715 d73d 0920 a23d 00b3 613d 5609 b63c
000000e0: e69d b93c 663a 6d3d 8627 9e3d e355 053c
000000f0: a6b4 cb3d db5f 7ebc 5673 393d 42f8 b43d
00000100: bde7 bd3d a299 8c3d be3e b03d ca16 8b3d
00000110: bf97 0e3d af38 923d e5d5 ec3d 1a24 5d3d
00000120: b803 88bc d9f3 f33b ff5b 58bd f607 29bc
00000130: 9e3f 423d cdff 42bd 4297 97bb b58c 813c
00000140: 3ca3 1e3d 0e02 08bb 6fc3 e93c d246 fe3c
00000150: f4a5 03bd 754e 0ebd d425 303d d3a3 263d
00000160: 758a 90bc cba4 053d 51b4 bb3d 47a7 dc3b
00000170: 233c 913d 485e cf39 dfd5 a63d 6d41 1dbb
00000180: c28e 983d 1c59 303b c475 9d3d 351b b43d
00000190: bce5 52bc ad20 69bb f94f 263d b959 9f3d
000001a0: 2f20 823d 16f1 dc3c fc22 32bc e8b3 bb3d
000001b0: 95d8 c33d b2f8 713d 9623 933c 77b1 6b3d
000001c0: c3d1 8f3c 144a 6cbb 8667 fd3c 58b8 6f3d
000001d0: 549a 713d 2275 9f3d b86c 2f3c 73d0 983d
000001e0: 2b43 c4bc 8e55 583d dbbf b83c a3c0 ad3c
000001f0: 09f4 05bc 8b6a 943d 57db a93c 08c5 eb3b
00000200: e6dc 1c3d 1ad4 083d d04c a43d 955a a03c
00000210: 2696 423c d2cd b83d 98cc 2fbb e357 b23d
00000220: 2854 0e3d 8dd4 7c3d e166 eb3c 3319 ef3c
00000230: bfe0 a43b 8a8f 803d da09 8d3d 1d9d e03d
00000240: aab9 063d 419d a5bc 59cc 3fbd 7b9e f8bc
00000250: d246 42bd 8ede d8bb df2c cdbc 0acb 5a3b
00000260: 666a 55bd 403d b53d b92a ac3c a989 8b3d
00000270: 4cd7 ca3c df09 2a3d 0c8a 4a3d cc22 5c3c
00000280: 216c 753d 7a61 653d 8a7f 9d3a 7e2b 82bd
00000290: de9f e7bc 2c7b 39bd 88ce 1d3d c523 593c
000002a0: 5434 0abd 7df8 b13c b12a 2d3c 00dd 933d
000002b0: ac26 bf3c 4e34 1b3d 8dd2 9e3c bca4 ae3d
000002c0: fe56 463c 9136 593c 8d59 353d 78c9 1c3c
000002d0: 3ab6 c13d 9d76 d33d 2fa2 df3c ddcc 853d
000002e0: b745 823d cd6f 843d a4b0 44bc 5d15 323d
000002f0: 4949 353d 1c0c 463d ff46 ae3c b76e 8c3b
00000300: dd1e 113c 7520 9f3c 4f30 233d b7c1 8b3d
00000310: e6c9 bc3d c748 583d da0e 2f3c 5985 9e3d
00000320: 0fb5 083d 42d4 6e3d ed53 d93b 0b97 c73d
00000330: be27 b33c aa45 4d3d a5ac 3e3d a242 a8bc
00000340: dae9 2cbd 0534 6dbd 3f14 cb3c eae5 c4bc
00000350: 3295 58bd 78bf a73c b1d7 e33c ddab 333d
00000360: 8231 523c a43f 883b 8617 013d 14d7 c13d
00000370: 833d fbba ec54 b93d 1c94 ce3d aba2 57bc
00000380: 5d0a 833d 2b29 8d3c 2e93 3b3d 1955 403d
00000390: 8a4a e33c 9ed9 863d 8165 be3d 2bc0 dc3d
000003a0: 652c 723d 211d a33d c9cd ca3d b383 723d
000003b0: 0943 0b3d 7853 ad3c cb56 7f3c b851 51ba
000003c0: 3e2e 3d3d 12fe 12ba 01a4 793d 7207 1f3d
000003d0: 0812 d23d 7315 273d 3f9c ab3d 592f cc3d
000003e0: b5b0 e23d 266c 8e3d 9278 c53d 084c 673d
000003f0: 2a31 923d c63a 3f3d 40a8 b43c f4f1 813d
0.04138015 0.06130904 0.016555967 0.044546146 0.016355742 0.06930083 0.05548559 0.040183794
0.06824799 0.023128858 -0.00067325006 0.040274356 0.09643414 0.060219236 0.011698906 0.03914881
0.021915369 0.027963815 0.07261059 0.09013548 0.0015823008 0.018517375 -0.005064615 0.05066653
0.029467795 -0.007279353 0.09766922 0.011256387 0.051912628 0.0740682 0.085814826 0.002754264
0.011197436 0.08374152 0.002135121 0.09511152 0.008189726 0.08910707 0.029727502 0.050009537
0.029519003 -0.0006024339 -0.0060261297 0.02644226 0.03568167 0.1891283 0.11723948 0.17059962
0.15524292 0.090826675 0.060701575 0.15805052 0.10502189 0.079162665 0.05510235 0.022221249
0.0226583 0.05791702 0.07722382 0.008138153 0.09946565 -0.015525783 0.04527601 0.08836414
0.09272716 0.06865241 0.08605717 0.06791456 0.034812685 0.07139718 0.11564235 0.053989507
-0.016603336 0.0074448404 -0.05282211 -0.010316839 0.04742395 -0.047607232 -0.0046261856 0.015814165
0.03872989 -0.0020753178 0.028535573 0.03103963 -0.032140687 -0.03474279 0.043004826 0.04068358
-0.017644146 0.032627862 0.09165252 0.006733808 0.07091548 0.00039552362 0.081462614 -0.0023995296
0.07449104 0.0026908582 0.07688478 0.08794252 -0.012872156 -0.0035572455 0.04060361 0.07780785
0.06353795 0.026970427 -0.010872599 0.09165174 0.09562794 0.059075065 0.017961305 0.05754229
0.017556077 -0.0036054896 0.030933153 0.058525413 0.05898507 0.07786013 0.010707073 0.074616335
-0.02395781 0.052815966 0.022552421 0.02121002 -0.008175858 0.07246884 0.020734472 0.007195119
0.038296603 0.0334054 0.08022463 0.019574443 0.0118766185 0.09023632 -0.0026824828 0.08708169
0.034748226 0.06172614 0.02873558 0.02918682 0.0050316746 0.06277378 0.06886645 0.10967467
0.032891907 -0.020216586 -0.04682574 -0.030349007 -0.04743082 -0.0066183275 -0.02504581 0.003338518
-0.052103423 0.08849573 0.021016465 0.06813366 0.024760865 0.04151332 0.049448058 0.013436031
0.059917573 0.056001164 0.0012016159 -0.06355952 -0.028274473 -0.04528348 0.03852704 0.013253157
-0.03374131 0.021724934 0.01056926 0.07219887 0.02333387 0.03789168 0.019387508 0.08527514
0.0121057015 0.013257639 0.044274855 0.009569518 0.09458585 0.10325358 0.027299015 0.06533215
0.06360953 0.06466637 -0.012005005 0.043477405 0.044259343 0.048351392 0.021274088 0.004285659
0.008857456 0.019424656 0.039840993 0.068240575 0.092181966 0.05280378 0.010684693 0.07740278
0.033375796 0.058307894 0.006632319 0.09745606 0.021869536 0.050115265 0.046551365 -0.020539586
-0.042215206 -0.057910938 0.024789928 -0.024035413 -0.05287666 0.020477042 0.02781281 0.043865073
0.012829186 0.004157977 0.031516574 0.09464851 -0.0019168112 0.09049401 0.10086843 -0.013161342
0.06398461 0.017231544 0.04579466 0.046956155 0.027745504 0.06584476 0.09296704 0.10778841
0.05912437 0.0796454 0.09902532 0.05920763 0.033999477 0.021157965 0.015584658 -0.00079848943
0.046186678 -0.00056073174 0.060947422 0.03882546 0.102573454 0.04079194 0.08379411 0.09969968
0.110688604 0.069542214 0.096421376 0.056468993 0.071382836 0.04668691 0.022052884 0.06344977

encoder.6.bias f4 [64]
00000000: f3e8 fe3c 520b 3cbd 0aaa 92bb d669 b43d
00000010: be2c 653b cdc0 e73d 92ab b63d b825 bfbc
00000020: 90a2 6b3d 953a aa3d ce44 a13d 5573 30bd
00000030: 71d0 4ebd 79c6 b93c 5a8a 4ebd 1200 08bd
00000040: 6e77 743d 568d 98bc fc80 28bd deb4 af3c
00000050: 51f7 743d 9832 373e e419 51bc 1ea2 003d
00000060: f5ce 8e3d d422 52bc f8cb 8fbc 38c8 9e3d
00000070: b9bc 363e 90fe 1abd a994 58bd 7763 1dbb
00000080: 3498 b43c 0484 7c3d 33f3 3c3e 3475 d2bc
00000090: e94e 0a3e 2540 bf3d 777f a23c 63a1 32bd
000000a0: 858b 253d 0e58 86bd 1e7c 00bd c2da 9e3d
000000b0: fd35 903d cde3 403d eaf8 8fbc 3035 4f3d
000000c0: efb3 8e3d 69a3 f73b 823f 1c3e 2522 b3bc
000000d0: fe25 303c b0f9 6d3d fe0f f63d 314d b53d
000000e0: 69bf 0bbd 80a8 7d3c 7306 7d3d f07e 143d
000000f0: d8a3 09bc 541f 4f3d f590 653d 8862 84bd
0.031116938 -0.045909233 -0.0044758366 0.08809249 0.0034969295 0.11316071 0.08919443 -0.023333415
0.05752808 0.08311955 0.078744516 -0.04307874 -0.050491754 0.022677647 -0.05042491 -0.033203192
0.05968421 -0.018622082 -0.041138634 0.021448549 0.05980617 0.17890394 -0.01276252 0.031404607
0.06973068 -0.0128256865 -0.017553315 0.077530324 0.1784543 -0.037840426 -0.05287615 -0.0024015584
0.022045232 0.061649337 0.18452148 -0.025690652 0.13506664 0.093384065 0.01983617 -0.04361094
0.04041626 -0.06559764 -0.031368367 0.077565685 0.070415474 0.047092248 -0.017574746 0.050587833
0.06967913 0.007557322 0.15258601 -0.021866867 0.010751246 0.05809945 0.12014769 0.08852614
-0.03411809 0.015482068 0.06177373 0.03625387 -0.00840088 0.050566986 0.056046445 -0.06464106

decoder.0.weight f4 [64, 32, 2, 2]
00000000: 5afa 6e3d ed85 063e 3f7f f5bc ded2 a13c
00000010: 0a53 993d 4ae4 9d3d 6c45 f13c 5aee 0f3d
00000020: f5d2 cc3c 60be 173d c3f1 c03d 5835 f43d
00000030: 2818 dd3b 726d 32bc cc26 9ebc e473 7e3d
00000040: 0ce9 17bd bcf1 dd3c 237c db3d 6d50 b8bc
00000050: db60 f43d 265f cd3d 8ec6 6d3c 9acc 773c
00000060: e398 f23d 9143 90bc 4656 063e 9f3f 10bc
00000070: 0941 abbd 0d30 40bd 998f d9bc a80f 1d3d
00000080: 3a58 bbbc ec4e 00bd 3567 5abd 5e64 a5bb
00000090: 2cb9 84bd 6a1d eebc e401 cf3d 3da3 453c
000000a0: e939 e4bd e438 34bd 2bd4 ed3c 1400 61bc
000000b0: 5013 8e3d 7cd0 c53d 0914 a2bd ca5b bebd
000000c0: 7d72 e43c 5434 9b3c 56c3 773d 5dae 393b
000000d0: 8682 b83d 1218 6dbd 206d febc bc02 5cbc
000000e0: 4c89 6cbc 75f2 0f3d 2c92 aa3d b9c7 323d
000000f0: 5517 a23d a590 80bd 70b0 adbc 2c46 4e3d
00000100: 1642 f23c 5b5b e63d 5bdc 25bc 582a de3d
00000110: f43a 0dbd 05e2 a03d 7888 86bc 182f dcbc
00000120: e7bd 08bd f548 ca3d 9c5b c63d f4ca 8c3d
00000130: b3c7 363d 2840 9cbd e4d0 2cbd 98b7 863c
00000140: bf93 223d 6511 88bc 256c cbbc 2760 ed3c
00000150: bc82 84bc d0a5 fcba ad42 e23d dfe3 243b
00000160: 389a 63bd 0c64 a63c bbae 41bb d70f fe3c
00000170: 39e6 9abd c79f 433b 6300 633d 63fe 663d
00000180: dc6d 8fbd 26fb 35bd a9d6 cd3c 8304 8cbd
00000190: 2067 8e3d 8a1f 7bbc c03a 0d3d fdda 0b3d
000001a0: c61c 193d 5fb7 ccbc ded1 4c3c 4bbe c43c
000001b0: c7c0 923d 37db ca3c c88c dcbc c71e 60bd
000001c0: 8d4f b13d bf4c 8c3c 4b45 ae3c 7066 a83d
000001d0: e858 c13d 18eb 3d3c cecc f2b9 6380 a9bc
000001e0: 95ee 81bd 1801 aeb9 2494 80bd 63df 3cbd
000001f0: 7eea 923c ac7c e63d 9f79 7d3d 6911 df3d
00000200: df0c 8bbd 4636 1c3c 7228 863d d106 9fbd
00000210: 724a 9abd 3f27 dfbc bd44 e03b 91e9 d13c
00000220: f746 723c 9a42 32bb e629 adbd 3e49 06b8
00000230: 11bf 773d e9b9 d93c 1dc9 9d3d 12b3 92bd
00000240: 50ea 89bc 5ccb 9f3d 073a e5bc 131e 443c
00000250: 88c3 8e3d 493f af3d 87a5 39bb 8a21 83bc
00000260: bfaa 143d cc08 01bd 8b37 8abd 79f4 16bd
00000270: 83df 90bd 2ea0 e83a f0ea b53b 1585 6fbd
00000280: f591 ad3d ff08 acbc 8e53 a33c 975f 9d3d
00000290: 9963 21bd d064 4d3b fb3f 763d 105c 103d
000002a0: f9b0 8e3d 3fcf 3cbd bddb 4bbd 51b6 30bd
000002b0: 8951 093d c4b0 35bd 0428 7f3c 4989 6f3d
000002c0: 9817 b2bc eefc 3abd 6e8a 983d 0b54 a9bd
000002d0: 6ea8 763d 838f 373d c8dd d2bc 0b61 953d
000002e0: 0eed 2a3d 9820 85bd 34af 933d 74d7 43bd
000002f0: 26a4 a2bd 6c87 22ba 5a02 a1bd d4c3 673c
00000300: e77d 8dbd c8b5 873d 4a2b f53c cad5 ec3c
00000310: ec5a 69bc b9d6 9abc f84b 17bd e8d2 c5bc
00000320: 31e0 6b3d 8df5 93bd 31fb 1bbd f626 693d
00000330: 1dc4 87bd 995f 0abd 8bee 50bb c97f 16bc
00000340: 412a 863c 0be2 26bd a99e 503c 8aef a3bc
00000350: 0724 313d e24f 56bd 4047 7fbd 3125 7abd
00000360: b260 0dbd 1ff4 6bbd 98df 24bd e4a2 adbd
00000370: 3100 32bd d261 12bd 6b24 863c a7ec c13b
00000380: 4710 34bc 3d3e 50bd 1d7b b03d ff6e b03d
00000390: 126f 983c 4141 aabd ca2c 9fbd e949 e1bc
000003a0: b592 403d c32c 04bd 3892 483c 91dc 073d
000003b0: 50e6 72bd 1034 7bbd 6d51 a53b 8e15 a5bd
000003c0: 4d34 66bc 4743 393d ccfb 643d 55da ae3d
000003d0: 46ed 34bd 6f3a 903c 4d8c 0bbd 87af a9bd
000003e0: b9b3 a13d e266 b23d 2216 32bd a757 6dbd
000003f0: aa16 013b 0d57 41bd 0370 043d db3e f73c
0.058344223 0.13137026 -0.029967902 0.01975387 0.074865416 0.07709558 0.029452048 0.03513942
0.025002936 0.03704679 0.094211124 0.11924237 0.0067472644 -0.010890352 -0.01930561 0.06212224
-0.037087485 0.027092807 0.107170366 -0.022499288 0.11932536 0.10027914 0.014512671 0.015124464
0.11845567 -0.017610343 0.13118848 -0.008804231 -0.08362014 -0.046920825 -0.02655773 0.03834501
-0.022869218 -0.031325266 -0.053321082 -0.005047365 -0.06480631 -0.02906676 0.101077825 0.012062845
-0.11143858 -0.043999568 0.029031834 -0.013732929 0.06937277 0.09658906 -0.07913978 -0.09294851
0.027886624 0.01894585 0.06048902 0.0028332688 0.0900927 -0.057884283 -0.031057894 -0.013428386
-0.014437031 0.035143334 0.08328661 0.0436475 0.079146065 -0.06277589 -0.021202296 0.05035989
0.029572528 0.112478934 -0.010123338 0.1084792 -0.03448005 0.0785561 -0.016422495 -0.026877925
-0.03338423 0.09877197 0.09685442 0.06874648 0.04462404 -0.07629424 -0.0421914 0.016444966
0.039691683 -0.016609857 -0.02483184 0.028976513 -0.01617562 -0.001927549 0.11047874 0.0025160236
-0.055566996 0.020311378 -0.002955361 0.031013412 -0.07563443 0.0029849873 0.05542029 0.056394946
-0.07003376 -0.044428967 0.025126772 -0.06836798 0.06953263 -0.015327344 0.034479856 0.03414439
0.037380956 -0.024989782 0.012501208 0.02401652 0.071656756 0.024762733 -0.026922598 -0.05471685
0.08657751 0.01712644 0.021273276 0.082226634 0.09440786 0.011591695 -0.00046310428 -0.020691102
-0.06344334 -0.0003318868 -0.062782556 -0.046111476 0.01793408 0.11254248 0.061883565 0.108919926
-0.06789564 0.009534424 0.06550683 -0.07764972 -0.075337306 -0.027240394 0.0068441317 0.025624068
0.014787427 -0.0027200342 -0.08455257 -3.20163e-05 0.06048495 0.026577907 0.07704375 -0.07163061
-0.016835362 0.078024596 -0.027981771 0.011970061 0.069708884 0.085569926 -0.0028327422 -0.016007204
0.03629565 -0.03150253 -0.06748875 -0.03685424 -0.070738815 0.0017747933 0.0055516884 -0.058476526
0.08475105 -0.021000383 0.019937303 0.07684248 -0.039401624 0.0031340607 0.06011961 0.035244048
0.069673486 -0.046096083 -0.049770106 -0.04314262 0.033525024 -0.04435803 0.015573505 0.058480535
-0.021739766 -0.04565137 0.07448278 -0.08267983 0.06021922 0.044814598 -0.02574052 0.072939
0.04172998 -0.065003574 0.07211152 -0.047812894 -0.07941465 -0.0006199989 -0.07861777 0.01414581
-0.069087796 0.06626469 0.029927868 0.028910536 -0.014242869 -0.018901216 -0.036937684 -0.02414842
0.057586852 -0.072245695 -0.03808135 0.05692192 -0.066292025 -0.033782575 -0.0031880464 -0.00918574
0.01637757 -0.040742915 0.01273314 -0.020011682 0.04324725 -0.052322276 -0.06232381 -0.061070625
-0.034516044 -0.05760586 -0.040252298 -0.084783345 -0.043457214 -0.03573782 0.016374787 0.0059181037
-0.010990209 -0.050840605 0.08617232 0.08614921 0.01860765 -0.083132274 -0.07772215 -0.027501063
0.04701491 -0.03226925 0.0122418925 0.033169333 -0.059301674 -0.061328948 0.005045107 -0.08060752
-0.014050555 0.045230176 0.055904195 0.08537737 -0.044171594 0.017605988 -0.034069348 -0.08285432
0.078956075 0.087110296 -0.04347814 -0.05794492 0.0019697347 -0.04720216 0.032333385 0.030181339

decoder.0.bias f4 [32]
00000000: 162a b53d 40e6 b7bc 876c d83d 5216 c43d
00000010: 39ad c83d 211c f53c 9593 cf3d e000 74bd
00000020: 839f 37bc 34f6 51bd 6ec4 7bbd 5a24 9b3d
00000030: 7c31 093d 0ca7 8cbd 9c8e 943d 678d cebd
00000040: 947e de3d 7b92 4c3d 4cdc d13c 366c a13d
00000050: a90f 813a 58e3 73bc cca0 8bbd a539 d5bc
00000060: 4262 a23d 2643 9bbb 8659 063e f4d7 c4bc
00000070: 33e2 d23d 50c7 c03d 6573 adbd 40a3 e53d
0.08845918 -0.022448659 0.10567575 0.0957457 0.097986646 0.02992064 0.10135571 -0.059571147
-0.011207464 -0.05126019 -0.061466627 0.07575293 0.033494458 -0.06867799 0.07253763 -0.10085564
0.108639866 0.049944382 0.025617741 0.07881968 0.0009846586 -0.014885746 -0.06817779 -0.026028464
0.079288974 -0.0047382293 0.13120088 -0.024028756 0.1029705 0.09413016 -0.084692754 0.11212778

decoder.2.weight f4 [32, 16, 2, 2]
00000000: a1af 0a3e 22cb b03d 534b d3bd 1f15 15ba
00000010: bfa2 d4bc 41a9 9b3d 8f5b e9bd c464 1abc
00000020: ad7d a2bd 25fb a93c a685 a9bd 74b8 e3bd
00000030: c5df 8d3d 23c6 71bc 8a9f 023e 6d7f 903d
00000040: d416 bd3d 52b1 21bd 11e7 183e 3886 823d
00000050: 0c07 d53d 631f 553d e845 3bbd e6a5 e5bd
00000060: 2ef5 bdbd 0a46 b03c f25c dfbd b5d5 1ebd
00000070: 23b8 e03d 377d f93d 654b be3d 4bcd 023d
00000080: b329 1c3e f2a9 82bb 9058 783d 9b3c 143e
00000090: 6403 5d3b 324f 923c 6997 74bd b81a e9bd
000000a0: a604 1d3d f26a b7bd f1d5 e43d 34a6 2cbd
000000b0: afd5 84bc c02c 09bd 6c18 ddbd eef1 15be
000000c0: 0839 563d 41fa ddbb d5a6 e33d 609b e03d
000000d0: 04c6 cdbd 9b94 d73d bac0 98bd a4f4 0abe
000000e0: 147d 40bd 8076 7f3d 1e5f 0cbe b6d5 a9bd
000000f0: 1eb8 1b3d f050 89bd ecbf f13d 0f91 d5bd
00000100: cd8c cd3d 393c 4f3c 6332 f639 a850 043e
00000110: 10ac 88b9 37d4 c93d 52a5 0d3d e26a 213d
00000120: b421 3bbd 22c7 65bd 5246 40bd 0c7d 653d
00000130: 98a7 35be edd6 dfbd d1c8 503d f844 963d
00000140: 842e 923d 20ad ee3b 49fd 56bd 4f52 493c
00000150: 3444 f13b 6595 de3c ca14 e63d 7018 68bd
00000160: 7c80 39bd fcc6 923d 7586 0dbd 1bd2 b2bc
00000170: ba40 0c3e 1ab7 d93d 0c0a a73d e4cf 4a3b
00000180: eba1 033e f28e b33d 5773 203e 7f75 12bd
00000190: 0896 443d 7e89 01be 28ba 3dbd ebae 93bd
000001a0: 1881 f83d 4bad 303d 1b56 193e f6cc c53d
000001b0: 2933 d03d 88bf 213d 18c8 6e3d 3e99 8abd
000001c0: 2d16 b13c 2051 3b3d 268c f8bd d8fb 1abd
000001d0: fe6f b9bd de66 c03d 04e6 dc3d f705 273d
000001e0: 52e1 1f3d a2ea 05bd 3d09 623d b069 e1bc
000001f0: 5e45 e93d 45d2 c1bd 2967 8b3c f8c6 90bd
00000200: f288 71bd e4c9 c53d 5fc1 b1bd 2ecf 2a3d
00000210: 167f 1ebe db6b 273d e38f 42bd 5714 f43d
00000220: 6bd4 86bd 10a6 03be 59f8 c4bd 45fa d0bd
00000230: e9e9 8abd 7ae2 88bd 8dfc bebb c905 f73d
00000240: 52c9 43bd 755d b1bd f0c2 64bc 6723 07bd
00000250: 0b62 dc3d bc6d fd3d 5d0a abbd 1a93 ebbd
00000260: b3c5 873c 1018 c7bd 5313 ccbd 52e0 3ebc
00000270: de34 373d db0e 3c3e e9e6 d63d 5777 6c3d
00000280: 953d 313e ba4b 903d 4500 2a3e 8f08 183e
00000290: d9ae 623d 7871 cf3c ab6b 393d 152c 103d
000002a0: 1829 82ba a974 2e3c b3cd f73d 8b82 053d
000002b0: 4698 db3d 4883 f0bd f4af 3ebd fdf1 9c3b
000002c0: ad4d 3fbc 089a 9d3d fa80 e93c 53e0 abbc
000002d0: 24fa fbbc 45c4 b8bc bc68 93bd 4e82 e43d
000002e0: c698 cfbd bc89 b63d 7105 a6bd 7d90 debd
000002f0: 6063 81bc f510 12be b063 313e 1a26 b5bc
00000300: 49cc 603c 8115 573d 30f1 eabc 918b af3d
00000310: ae27 0c3d c875 703d 46b7 993d 9ae7 9d3c
00000320: f89f a3bd cd85 b9bc 10b2 9c3d 987b 523d
00000330: b037 ac3c ee1f 8fbc f29f c53d 8292 9abd
00000340: 34fe 823d d37c 323d 1af9 6dbc acbf c6bd
00000350: 16ac 1c3e 2d6e 4ebc 48d0 86bd b802 a03c
00000360: 729b b43d a36a 183d f629 863d cadd 7ebb
00000370: aec8 0b3d 02e2 06bc e181 c53d 74a6 8b3d
00000380: 1b38 363e db53 bf3d 0ae5 43bb 5b5c 19bd
00000390: 4afe 5f3c 1032 b6bb 8f28 013b c292 a6bc
000003a0: 3595 2bbd 2728 d73c 747b 703c c58f bb3d
000003b0: d35b 0d3e 007b 223c 3ad8 ed3d e30e 9a3d
000003c0: 447c e83d dd7f 413e 39f7 863c b53b b53d
000003d0: feda f0bd 7fc8 ad3c bcda 02be 2fab d8bd
000003e0: 356b 273c a103 cebd 5629 05be 6b65 a0bd
000003f0: 38ba e8bb fb35 1ebe ecd9 2c3e 3c8c 9abd
0.1354356 0.086324945 -0.10317101 -0.0005687046 -0.02595651 0.07600642 -0.113944165 -0.009423438
-0.07934127 0.020749638 -0.082774445 -0.11119166 0.06927446 -0.014756712 0.12756172 0.070555545
0.0923287 -0.039475746 0.14931895 0.063732564 0.10401735 0.052031886 -0.045720965 -0.11213283
-0.0927528 0.021517772 -0.109064 -0.038778026 0.10972621 0.12182086 0.09291724 0.031934064
0.15250282 -0.003987544 0.060631335 0.14476244 0.0033723945 0.017860029 -0.05971471 -0.11382049
0.03833451 -0.08955945 0.111736186 -0.04215069 -0.016215174 -0.033489943 -0.10795674 -0.1464307
0.052300483 -0.0067742174 0.11115805 0.109671354 -0.10047534 0.10526391 -0.07458635 -0.13569885
-0.046994284 0.06236887 -0.1370816 -0.08292715 0.038017385 -0.06704891 0.11804184 -0.10428058
0.10036621 0.012648636 0.00046958317 0.12921393 -0.00026068138 0.0985493 0.03458149 0.039408572
-0.04568644 -0.05609811 -0.046942063 0.056027457 -0.17739713 -0.10929666 0.050972763 0.073373735
0.071377784 0.0072838217 -0.052487645 0.01228769 0.007362867 0.027170846 0.11234434 -0.05666393
-0.045288548 0.071668595 -0.034552056 -0.021828702 0.13696566 0.10630627 0.08156213 0.0030946666
0.12854736 0.08767499 0.15668999 -0.035756584 0.047994643 -0.12650105 -0.04632011 -0.07211097
0.12133998 0.043134015 0.14974253 0.09658234 0.10166008 0.0394893 0.058296293 -0.0676751
0.02161702 0.045731664 -0.12136106 -0.037837833 -0.09054564 0.0939462 0.107860595 0.040777173
0.03903324 -0.032694466 0.05518459 -0.027516216 0.11390184 -0.09463934 0.017016964 -0.070692
-0.05896849 0.09657648 -0.08679461 0.04170149 -0.15478167 0.040874343 -0.047500502 0.11917942
-0.06583484 -0.12856317 -0.09617681 -0.10203985 -0.06782896 -0.06683822 -0.0058284462 0.1206165
-0.047799416 -0.08660404 -0.013962492 -0.032992747 0.10760888 0.12374446 -0.08351586 -0.11502667
0.016573763 -0.097213864 -0.09964623 -0.011650162 0.044728152 0.18365042 0.10493261 0.057731
0.17308648 0.07045694 0.16601665 0.14847015 0.05534253 0.02532266 0.045268696 0.03519829
-0.000993046 0.010647931 0.12099781 0.0325952 0.10722403 -0.1174379 -0.04655452 0.0047895894
-0.011676234 0.07695395 0.028503884 -0.02098099 -0.030758925 -0.022554526 -0.07197711 0.11157666
-0.10136561 0.089129895 -0.081065066 -0.10867403 -0.015794456 -0.14264281 0.17323184 -0.022112895
0.01372058 0.052510742 -0.02867946 0.08571542 0.03421753 0.058706075 0.0750566 0.019275475
-0.07989496 -0.022646809 0.0765115 0.0513874 0.021022648 -0.01747128 0.09649648 -0.075474754
0.06396142 0.043576073 -0.0145247225 -0.09704527 0.1530002 -0.01259951 -0.06582695 0.019532546
0.08818711 0.03721107 0.06550972 -0.003888952 0.03412693 -0.008232595 0.09643913 0.06818858
0.1779484 0.09342166 -0.0029891157 -0.037441593 0.013671467 -0.005560167 0.0019708013 -0.020333651
-0.04189034 0.026264263 0.014677871 0.09158281 0.1380456 0.009917021 0.116135076 0.07522371
0.11351827 0.18896432 0.016475307 0.08849279 -0.117605194 0.021213768 -0.12778753 -0.10579526
0.010218431 -0.10059286 -0.1300405 -0.07831844 -0.007102277 -0.1545028 0.16880006 -0.07546279

decoder.2.bias f4 [16]
00000000: a88e 75bd 08dd be3c cb00 81bd 4482 97bd
00000010: e437 933d cf1e 76bd c254 a3bd 7106 ae3a
00000020: 3745 c23d 64c5 fbbc 60f1 493d 4980 78bd
00000030: 72d7 ea3d b016 00bd 2353 d83d ef68 9b3d
-0.0599505 0.023298755 -0.06298979 -0.07397893 0.07188395 -0.060087975 -0.07975151 0.0013277066
0.09485858 -0.030733772 0.04930246 -0.060669217 0.11466874 -0.031271636 0.10562732 0.07588374

decoder.4.weight f4 [16, 8, 2, 2]
00000000: 0e87 e3bd 399b 9c3d 1ba7 e3bd 429b 4c3e
00000010: ba76 1e3d cb9c 3bbd 8822 973d 2a79 fcbc
00000020: d2cf cd3d 8cc7 0b3e 72c0 2abe 1310 d9bd
00000030: 62de 8b3d 8044 873d 6b7c 1c3e a650 093e
00000040: 7817 133e 67c6 a93c 33d8 c33d 0a57 f13d
00000050: 5ea4 48be 0cc5 b93d 66e7 59bc 60c4 60be
00000060: a928 da3d 6c27 4f3e 1fb9 fe3d 6412 da3d
00000070: 00f3 ac3d 8073 aabd 7eff 1bbe 3aaa 3e3d
00000080: ca7f 3f3e ca51 5dbd fd66 0cbd 76bb 82bd
00000090: 896a 893d a0b4 03bd fed6 b7bd 4034 8abd
000000a0: 09a3 2bbe fead 49be 50bd 1d3c c4bc 5abd
000000b0: 02a2 0f3e 90eb f4bd 0bb1 5b3e d25d 073d
000000c0: e879 17be 2a1a f23b 0ee4 a8bd c6ba 34be
000000d0: 25c0 003e 4100 1abd f375 e6bd 809e e53d
000000e0: 0732 533e ba56 76bd f657 383e ad80 21be
000000f0: a751 283b dd5e 5a3e b0de b7bd 009c e03d
00000100: 41d9 19be 4e7d 04be 1e7f 27bd 67f6 10be
00000110: 5e5d 89bd b06a 92bd a7a6 363d 7145 28be
00000120: 057a 40be 7eaa f63d 3d85 2bbe ad32 89bc
00000130: 6d64 ccbd a5f7 5bbd e489 28be 3a3c 433b
00000140: ede5 813d 7ae2 e1bc 0491 353c d165 1abe
00000150: 9d37 2d3e 56d9 b5bc 9729 113e 76d8 813e
00000160: 0ae5 023e 019b 9e3d a822 753d 8c31 12bb
00000170: 5e34 debc 1888 54bd 19c7 bb3d f046 1e3d
00000180: a0b0 043e 20cc 09bd 190b 47bd f6cb 50bd
00000190: e520 bb3c 4de2 c1bd fa36 413e 03ba 5f3e
000001a0: 08d1 05be 4a51 853a d18a 003e bcac 24be
000001b0: 986e 893d ddc3 353e bc60 143e bffe dc3b
000001c0: 775f 5c3d 10d4 0dbe f30b dcbd d698 ebbd
000001d0: 596d 95bc 678a 843c 5d9a af3d 7146 aa3c
000001e0: 8d40 95bb c4ab 093e 83ef 9b3d a882 d83c
000001f0: 56b0 a23d 8ffb fbbd dead c73d b99b 373c
00000200: 25a3 473e 2f2d 4f3d 19bb 15bd d97b e23c
00000210: 5b9c 0d3e 702c 00bc 7b8c eabd b3b1 593d
00000220: 8ec6 2dbe 10ee 99bd aeda 033c 3af3 b53d
00000230: fd98 dd3c 6fb3 0b3e ade0 cb3d f6cf 6ebd
00000240: f2c7 113e 7479 4ebd b3fe 753d d5af d93d
00000250: 8647 0bbe dbd0 80bd 96fa 7ebd d5a0 2dbe
00000260: c951 80bd dfbd 27be a006 4d3e 8f2c 2bbe
00000270: 8505 f13d 96bd 56bd 764c 31bc fa13 33be
00000280: c667 203e c0e0 ca3d 513d 81bd 3f96 3d3e
00000290: 85c3 283e 53bf b2bd b53c b03d de94 233e
000002a0: 8cd0 cb3d 50ab 8d3d 12cb 013e 0b70 9e3d
000002b0: 05ce e93d ee8d a33d dceb b83d fe72 d1bc
000002c0: 9403 093d f63b 17bd f13a e33c e703 0abe
000002d0: 0f7a a7bc 6922 853d 6a45 47bc 44bd f4bc
000002e0: 380a 9c3d ea49 abbc d886 88bd a08f 9bbd
000002f0: c307 413d 870a 3b3e b276 3f3d 23b1 f73d
00000300: 4670 0d3d 6bdb c23d 541c 993d adbe f03d
00000310: 2fa4 0fbd 1807 8ebd 884f 89bc 5d37 97bc
00000320: 21c8 6d3d 5ece efbd 36b4 b8bd 581e 77bd
00000330: ff43 753d d140 e93c 4ecb dcbd d808 95bd
00000340: b38f 9dbd cec8 033e 0237 03bd 5af2 a5bd
00000350: 9aa2 023e a8f3 6bbd ecd5 643c cba6 623d
00000360: f833 893b 4168 04be cb0d 42be f0c8 fabd
00000370: 5c7a 8c3d 1d00 f23d 201b ae3d 0955 c2bd
00000380: e9df f0bd 3b0f 1e3e cf49 323e 9370 1cbd
00000390: f7c0 e3bd df3a 78bd c11a 693e 18a8 febd
000003a0: 4bbd b4bc 6d5f 4cbd 1f87 6dbd e597 4ebb
000003b0: 1db7 c0bd ff50 16bd 9c45 673e d4e4 b03d
000003c0: ecae 57bd 56f1 e9bd d0ae a23b c623 b0bd
000003d0: b04a 5f3d faec e1bd 487b dabd dc54 963c
000003e0: 0a53 afbc b99f 873d 5d6d 45bd f1a1 a23d
000003f0: 465f 14bb 8b1d 823d 3aad d53d 5eac 883d
-0.11109744 0.07646794 -0.11115857 0.19981101 0.038687445 -0.045803826 0.07379633 -0.030819494
0.10049404 0.1365034 -0.16674975 -0.10598769 0.068295255 0.06604862 0.15281837 0.13409671
0.14364421 0.020724488 0.09562721 0.117841795 -0.19593951 0.09070787 -0.013299799 -0.21949911
0.106522866 0.20229882 0.12437653 0.10648039 0.08444786 -0.08322811 -0.15234181 0.04654906
0.18701091 -0.05403308 -0.034277905 -0.063834116 0.06709773 -0.03215468 -0.089765534 -0.06748247
-0.16761412 -0.19695279 0.009627655 -0.053402677 0.14026645 -0.119589925 0.21454255 0.03304846
-0.14792597 0.007388373 -0.08246623 -0.17649373 0.12573297 -0.0375979 -0.11252966 0.11211872
0.20624553 -0.060141303 0.18002304 -0.15771742 0.0025683434 0.2132525 -0.08978021 0.10967255
-0.15024282 -0.12938425 -0.040892713 -0.14156495 -0.067072615 -0.07149255 0.044592526 -0.1643274
-0.18796547 0.120442376 -0.16750045 -0.016747797 -0.09980092 -0.05370297 -0.16458851 0.0029790537
0.06342683 -0.027573813 0.011081938 -0.15077902 0.16915746 -0.02219836 0.14176022 0.2536046
0.12782684 0.077444084 0.059847504 -0.0022307364 -0.02712458 -0.0518876 0.09168834 0.03864187
0.12958002 -0.033641934 -0.048594568 -0.050975762 0.022842834 -0.094669916 0.18868628 0.21848302
-0.1306802 0.0010171321 0.12552954 -0.16081518 0.06710547 0.17750497 0.14490026 0.0067442353
0.05380198 -0.13850427 -0.10744467 -0.115037605 -0.018240618 0.016179277 0.08574364 0.020785542
-0.004554814 0.1344443 0.076140426 0.02642949 0.0794379 -0.1230384 0.097499594 0.011206561
0.19495828 0.0505802 -0.036555383 0.027646946 0.13829176 -0.007823095 -0.11452576 0.053147983
-0.16970274 -0.0751611 0.008047743 0.088842824 0.02705049 0.13642667 0.09954963 -0.058303796
0.1423643 -0.050408795 0.060057353 0.106292404 -0.13601503 -0.06289836 -0.062250696 -0.16955884
-0.06265599 -0.16381024 0.20022058 -0.16716217 0.11768631 -0.052426897 -0.010821452 -0.17488089
0.15664586 0.09906149 -0.06310523 0.18514346 0.16480835 -0.087278984 0.08605329 0.15974757
0.099518865 0.06917441 0.12675121 0.07736214 0.11416248 0.07986055 0.090293616 -0.025567528
0.033450678 -0.036922418 0.027738066 -0.13478051 -0.020443944 0.06500704 -0.012162546 -0.029875405
0.076191366 -0.020909268 -0.066663444 -0.07595754 0.047126543 0.18265735 0.046744056 0.12094333
0.0345309 0.09514507 0.07476106 0.117551185 -0.035068687 -0.06934947 -0.016761556 -0.018459016
0.058052186 -0.11709283 -0.090187475 -0.060331672 0.0598793 0.02847329 -0.10780965 -0.072770774
-0.07693424 0.1286957 -0.03203488 -0.081028655 0.1275734 -0.057605416 0.013967019 0.055334847
0.0041871034 -0.12930395 -0.18950574 -0.12245357 0.06859276 0.11816428 0.085012674 -0.094888754
-0.117614575 0.15435497 0.17410968 -0.038193297 -0.111207895 -0.06060302 0.22764112 -0.12434405
-0.022062918 -0.049895693 -0.05799019 -0.0031523642 -0.09409926 -0.036698338 0.22585148 0.086373955
-0.052657053 -0.11422984 0.004964687 -0.08600573 0.054514587 -0.11031528 -0.10668045 0.018351011
-0.0214019 0.066222616 -0.0482 0.07941044 -0.0022639795 0.06353291 0.10433431 0.066735014

decoder.4.bias f4 [8]
00000000: 6aca e43d da14 963d 1d32 033e bcc0 213e
00000010: e409 6e3d 8b48 573d 2768 c9bd 72f2 d13c
0.1117142 0.07328196 0.12812085 0.15796179 0.0581149 0.052559417 -0.098343186 0.025628302

decoder.6.weight f4 [1, 8, 1, 1]
00000000: e65b 86be b05c e6bd 44ac f5bb dd7d 92be
00000010: a708 033e d573 263e ab30 e5bd 7216 9dbe
-0.26241988 -0.112481475 -0.0074973423 -0.2861165 0.1279627 0.16255124 -0.11190923 -0.30681187
